…
54000/54000 [==============================] - 18s 328us/sample - loss: 0.0644 - accuracy: 0.9799 - categorical_accuracy: 0.0991 - f1_score: 0.9980 - recall_score: 0.9960 - precision_score: 1.0000 - top_k_categorical_accuracy: 0.3519 - multiclass_true_positives: 52913.0000 - val_loss: 0.0627 - val_accuracy: 0.9830 - val_categorical_accuracy: 0.0970 - val_f1_score: 0.9981 - val_recall_score: 0.9963 - val_precision_score: 1.0000 - val_top_k_categorical_accuracy: 0.3730 - val_multiclass_true_positives: 5898.0000
Model: "sequential_7"
_________________________________________________________________
Layer (type)                 Output Shape              Param #   
=================================================================
conv2d_14 (Conv2D)           (None, 24, 24, 6)         156       
_________________________________________________________________
average_pooling2d_10 (Averag (None, 12, 12, 6)         0         
_________________________________________________________________
conv2d_15 (Conv2D)           (None, 8, 8, 16)          2416      
_________________________________________________________________
average_pooling2d_11 (Averag (None, 4, 4, 16)          0         
_________________________________________________________________
flatten_4 (Flatten)          (None, 256)               0         
_________________________________________________________________
dense_6 (Dense)              (None, 120)               30840     
_________________________________________________________________
flatten_5 (Flatten)          (None, 120)               0         
_________________________________________________________________
dense_7 (Dense)              (None, 84)                10164     
_________________________________________________________________
dense_8 (Dense)              (None, 10)                850       
=================================================================
Total params: 44,426
Trainable params: 44,426
Non-trainable params: 0