…

Model: "sequential_3"
_________________________________________________________________
Layer (type)                 Output Shape              Param #   
=================================================================
conv2d_6 (Conv2D)            (None, 24, 24, 6)         156       
_________________________________________________________________
average_pooling2d_6 (Average (None, 12, 12, 6)         0         
_________________________________________________________________
conv2d_7 (Conv2D)            (None, 8, 8, 16)          2416      
_________________________________________________________________
average_pooling2d_7 (Average (None, 4, 4, 16)          0         
_________________________________________________________________
flatten_6 (Flatten)          (None, 256)               0         
_________________________________________________________________
dense_9 (Dense)              (None, 120)               30840     
_________________________________________________________________
flatten_7 (Flatten)          (None, 120)               0         
_________________________________________________________________
dense_10 (Dense)             (None, 84)                10164     
_________________________________________________________________
dense_11 (Dense)             (None, 10)                850       
=================================================================
Total params: 44,426
Trainable params: 44,426
Non-trainable params: 0