…
54000/54000 [==============================] - 17s 316us/sample - loss: 0.0415 - accuracy: 0.9870 - categorical_accuracy: 0.0991 - f1_score: 0.9988 - recall_score: 0.9976 - precision_score: 1.0000 - top_k_categorical_accuracy: 0.3393 - multiclass_true_positives: 53300.0000 - val_loss: 0.0561 - val_accuracy: 0.9843 - val_categorical_accuracy: 0.0963 - val_f1_score: 0.9986 - val_recall_score: 0.9972 - val_precision_score: 1.0000 - val_top_k_categorical_accuracy: 0.3435 - val_multiclass_true_positives: 5906.0000
Model: "sequential"
_________________________________________________________________
Layer (type)                 Output Shape              Param #   
=================================================================
conv2d (Conv2D)              (None, 26, 26, 6)         60        
_________________________________________________________________
average_pooling2d (AveragePo (None, 13, 13, 6)         0         
_________________________________________________________________
conv2d_1 (Conv2D)            (None, 11, 11, 16)        880       
_________________________________________________________________
average_pooling2d_1 (Average (None, 5, 5, 16)          0         
_________________________________________________________________
flatten (Flatten)            (None, 400)               0         
_________________________________________________________________
dense (Dense)                (None, 120)               48120     
_________________________________________________________________
flatten_1 (Flatten)          (None, 120)               0         
_________________________________________________________________
dense_1 (Dense)              (None, 84)                10164     
_________________________________________________________________
dense_2 (Dense)              (None, 10)                850       
=================================================================
Total params: 60,074
Trainable params: 60,074
Non-trainable params: 0