…
54000/54000 [==============================] - 18s 332us/sample - loss: 0.1811 - accuracy: 0.9478 - categorical_accuracy: 0.0989 - f1_score: 0.9952 - recall_score: 0.9905 - precision_score: 1.0000 - top_k_categorical_accuracy: 0.3409 - multiclass_true_positives: 51183.0000 - val_loss: 0.1280 - val_accuracy: 0.9627 - val_categorical_accuracy: 0.0982 - val_f1_score: 0.9966 - val_recall_score: 0.9934 - val_precision_score: 1.0000 - val_top_k_categorical_accuracy: 0.3662 - val_multiclass_true_positives: 5776.0000
Model: "sequential_4"
_________________________________________________________________
Layer (type)                 Output Shape              Param #   
=================================================================
conv2d_8 (Conv2D)            (None, 24, 24, 6)         156       
_________________________________________________________________
average_pooling2d_8 (Average (None, 12, 12, 6)         0         
_________________________________________________________________
conv2d_9 (Conv2D)            (None, 8, 8, 16)          2416      
_________________________________________________________________
average_pooling2d_9 (Average (None, 4, 4, 16)          0         
_________________________________________________________________
flatten_8 (Flatten)          (None, 256)               0         
_________________________________________________________________
dense_12 (Dense)             (None, 120)               30840     
_________________________________________________________________
flatten_9 (Flatten)          (None, 120)               0         
_________________________________________________________________
dense_13 (Dense)             (None, 84)                10164     
_________________________________________________________________
dense_14 (Dense)             (None, 10)                850       
=================================================================
Total params: 44,426
Trainable params: 44,426
Non-trainable params: 0