…
54000/54000 [==============================] - 18s 325us/sample - loss: 0.0379 - accuracy: 0.9881 - categorical_accuracy: 0.0989 - f1_score: 0.9989 - recall_score: 0.9977 - precision_score: 1.0000 - top_k_categorical_accuracy: 0.3638 - multiclass_true_positives: 53359.0000 - val_loss: 0.0587 - val_accuracy: 0.9825 - val_categorical_accuracy: 0.0977 - val_f1_score: 0.9984 - val_recall_score: 0.9968 - val_precision_score: 1.0000 - val_top_k_categorical_accuracy: 0.4398 - val_multiclass_true_positives: 5895.0000

Model: "sequential_2"
_________________________________________________________________
Layer (type)                 Output Shape              Param #   
=================================================================
conv2d_4 (Conv2D)            (None, 24, 24, 6)         156       
_________________________________________________________________
average_pooling2d_4 (Average (None, 12, 12, 6)         0         
_________________________________________________________________
conv2d_5 (Conv2D)            (None, 8, 8, 16)          2416      
_________________________________________________________________
average_pooling2d_5 (Average (None, 4, 4, 16)          0         
_________________________________________________________________
flatten_4 (Flatten)          (None, 256)               0         
_________________________________________________________________
dense_6 (Dense)              (None, 120)               30840     
_________________________________________________________________
flatten_5 (Flatten)          (None, 120)               0         
_________________________________________________________________
dense_7 (Dense)              (None, 84)                10164     
_________________________________________________________________
dense_8 (Dense)              (None, 10)                850       
=================================================================
Total params: 44,426
Trainable params: 44,426
Non-trainable params: 0